…
      4\n      0.79334\n    \n    \n      9\n      ABCD\n      1.0\n      4\n      0.79334\n    \n  \n\n\n\n\n\nTest build_from_py_codes()\n\nfrom peptdeep.model.ms2 import pDeepModel\nfrom peptdeep.pretrained_models import model_zip\n\n\nms2_model = pDeepModel()\nms2_model.build_from_py_codes(\n    model_zip, 'generic/ms2.pth.model.py', \n    include_model_params_yaml=True\n)\n\nms2_model.model\n\nDevice `gpu` is not available, set to `cpu`\n\n\nModel(\n  (dropout): Dropout(p=0.1, inplace=False)\n  (input_nn): Input_AA_Mod_PositionalEncoding(\n    (mod_nn): Mod_Embedding_FixFirstK(\n      (nn): Linear(in_features=103, out_features=2, bias=False)\n    )\n    (aa_emb): Embedding(128, 240, padding_idx=0)\n    (pos_encoder): PositionalEncoding()\n  )\n  (meta_nn): Meta_Embedding(\n    (nn): Linear(in_features=9, out_features=7, bias=True)\n  )\n  (hidden_nn): Hidden_HFace_Transformer(\n    (bert): BertEncoder(\n      (layer): ModuleList(\n        (0): BertLayer(\n          (attention): BertAttention(\n            (self): BertSelfAttention(\n              (query): Linear(in_features=256, out_features=256, bias=True)\n              (key): Linear(in_features=256, out_features=256, bias=True)\n              (value): Linear(in_features=256, out_features=256, bias=True)\n              (dropout): Dropout(p=0.1, inplace=False)\n            )\n            (output): BertSelfOutput(\n              (dense): Linear(in_features=256, out_features=256, bias=True)\n              (LayerNorm): LayerNorm((256,), eps=1e-08, elementwise_affine=True)\n              (dropout): Dropout(p=0.1, inplace=False)\n            )\n          )\n          (intermediate): BertIntermediate(\n            (dense): Linear(in_features=256, out_features=1024, bias=True)\n          )\n          (output): BertOutput(\n            (dense): Linear(in_features=1024, out_features=256, bias=True)\n            (LayerNorm): LayerNorm((256,), eps=1e-08, elementwise_affine=True)\n            (dropout): Dropout(p=0.1, inplace=False)\n          )\n        )\n        (1): BertLayer(\n          (attention): BertAttention(\n            (self): BertSelfAttention(\n              (query): Linear(in_features=256, out_features=256, bias=True)\n              (key): Linear(in_features=256, out_features=256, bias=True)\n              (value): Linear(in_features=256, out_features=256, bias=True)\n              (dropout): Dropout(p=0.1, inplace=False)\n            )\n            (output): BertSelfOutput(\n              (dense): Linear(in_features=256, out_features=256, bias=True)\n              (LayerNorm): LayerNorm((256,), eps=1e-08, elementwise_affine=True)\n              (dropout): Dropout(p=0.1, inplace=False)\n            )\n          )\n          (intermediate): BertIntermediate(\n            (dense): Linear(in_features=256, out_features=1024, bias=True)\n          )\n          (output): BertOutput(\n            (dense): Linear(in_features=1024, out_features=256, bias=True)\n            (LayerNorm): LayerNorm((256,), eps=1e-08, elementwise_affine=True)\n            (dropout): Dropout(p=0.1, inplace=False)\n          )\n        )\n        (2): BertLayer(\n          (attention): BertAttention(\n            (self): BertSelfAttention(\n              (query): Linear(in_features=256, out_features=256, bias=True)\n              (key): Linear(in_features=256, out_features=256, bias=True)\n              (value): Linear(in_features=256, out_features=256, bias=True)\n              (dropout): Dropout(p=0.1, inplace=False)\n            )\n            (output): BertSelfOutput(\n              (dense): Linear(in_features=256, out_features=256, bias=True)\n              (LayerNorm): LayerNorm((256,), eps=1e-08, elementwise_affine=True)\n              (dropout): Dropout(p=0.1, inplace=False)\n            )\n          )\n          (intermediate): BertIntermediate(\n            (dense): Linear(in_features=256, out_features=1024, bias=True)\n          )\n          (output): BertOutput(\n            (dense): Linear(in_features=1024, out_features=256, bias=True)\n            (LayerNorm): LayerNorm((256,), eps=1e-08, elementwise_affine=True)\n            (dropout): Dropout(p=0.1, inplace=False)\n          )\n        )\n        (3): BertLayer(\n          (attention): BertAttention(\n            (self): BertSelfAttention(\n              (query): Linear(in_features=256, out_features=256, bias=True)\n              (key): Linear(in_features=256, out_features=256, bias=True)\n              (value): Linear(in_features=256, out_features=256, bias=True)\n              (dropout): Dropout(p=0.1, inplace=False)\n            )\n            (output): BertSelfOutput(\n              (dense): Linear(in_features=256, out_features=256, bias=True)\n              (LayerNorm): LayerNorm((256,), eps=1e-08, elementwise_affine=True)\n              (dropout): Dropout(p=0.1, inplace=False)\n            )\n          )\n          (intermediate): BertIntermediate(\n            (dense): Linear(in_features=256, out_features=1024, bias=True)\n          )\n          (output): BertOutput(\n            (dense): Linear(in_features=1024, out_features=256, bias=True)\n            (LayerNorm): LayerNorm((256,), eps=1e-08, elementwise_affine=True)\n            (dropout): Dropout(p=0.1, inplace=False)\n          )\n        )\n      )\n    )\n  )\n  (output_nn): Decoder_Linear(\n    (nn): Sequential(\n      (0): Linear(in_features=256, out_features=64, bias=True)\n      (1): PReLU(num_parameters=1)\n      (2): Linear(in_features=64, out_features=4, bias=True)\n    )\n  )\n  (modloss_nn): ModuleList(\n    (0): Hidden_HFace_Transformer(\n      (bert): BertEncoder(\n        (layer): ModuleList(\n          (0): BertLayer(\n            (attention): BertAttention(\n              (self): BertSelfAttention(\n                (query): Linear(in_features=256, out_features=256, bias=True)\n                (key): Linear(in_features=256, out_features=256, bias=True)\n                (value): Linear(in_features=256, out_features=256, bias=True)\n                (dropout): Dropout(p=0.1, inplace=False)\n              )\n              (output): BertSelfOutput(\n                (dense): Linear(in_features=256, out_features=256, bias=True)\n                (LayerNorm): LayerNorm((256,), eps=1e-08, elementwise_affine=True)\n                (dropout): Dropout(p=0.1, inplace=False)\n              )\n            )\n            (intermediate): BertIntermediate(\n              (dense): Linear(in_features=256, out_features=1024, bias=True)\n            )\n            (output): BertOutput(\n              (dense): Linear(in_features=1024, out_features=256, bias=True)\n              (LayerNorm): LayerNorm((256,), eps=1e-08, elementwise_affine=True)\n              (dropout): Dropout(p=0.1, inplace=False)\n            )\n          )\n        )\n      )\n    )\n    (1): Decoder_Linear(\n      (nn): Sequential(\n        (0): Linear(in_features=256, out_features=64, bias=True)\n        (1): PReLU(num_parameters=1)\n        (2): Linear(in_features=64, out_features=4, bias=True)\n      )\n    )\n  )\n)"
  },
  {
    "objectID": "model/rt.html#constants",
    "href": "model/rt.html#constants",
    "title": "Retention Time Prediction",
    "section": "Constants",
    "text": "Constants\nirt peptides as reported by Escher et al."
  },
  {
    "objectID": "model/rt.html#model-definitions",
    "href": "model/rt.html#model-definitions",
…
cs_to_mobility_pred_df (precursor_df:pandas.core.frame.DataFrame)\n\nAdd ‘mobility_pred’ into precursor_df inplace\n\nsource\n\n\nAlphaCCSModel\n\n AlphaCCSModel (dropout=0.1,\n                model_class:torch.nn.modules.module.Module=<class\n                '__main__.Model_CCS_LSTM'>, device:str='gpu', **kwargs)\n\nModelInterface for Model_CCS_LSTM or Model_CCS_Bert\n\nmodel.get_parameter_num()\n\n713452\n\n\n\nmodel.model\n\nModel_CCS_LSTM(\n  (dropout): Dropout(p=0.1, inplace=False)\n  (ccs_encoder): Encoder_AA_Mod_Charge_CNN_LSTM_AttnSum(\n    (mod_nn): Mod_Embedding_FixFirstK(\n      (nn): Linear(in_features=103, out_features=2, bias=False)\n    )\n    (input_cnn): SeqCNN(\n      (cnn_short): Conv1d(36, 36, kernel_size=(3,), stride=(1,), padding=(1,))\n      (cnn_medium): Conv1d(36, 36, kernel_size=(5,), stride=(1,), padding=(2,))\n      (cnn_long): Conv1d(36, 36, kernel_size=(7,), stride=(1,), padding=(3,))\n    )\n    (hidden_nn): SeqLSTM(\n      (rnn): LSTM(144, 128, num_layers=2, batch_first=True, bidirectional=True)\n    )\n    (attn_sum): SeqAttentionSum(\n      (attn): Sequential(\n        (0): Linear(in_features=256, out_features=1, bias=False)\n        (1): Softmax(dim=1)\n      )\n    )\n  )\n  (ccs_decoder): Decoder_Linear(\n    (nn): Sequential(\n      (0): Linear(in_features=257, out_features=64, bias=True)\n      (1): PReLU(num_parameters=1)\n      (2): Linear(in_features=64, out_features=1, bias=True)\n    )\n  )\n)\n\n\n\nrepeat = 10\nprecursor_df = pd.DataFrame({\n    'sequence': ['AGHCEWQMKYR']*repeat,\n    'mods': ['Acetyl@Protein N-term;Carbamidomethyl@C;Oxidation@M']*repeat,\n    'mod_sites': ['0;4;8']*repeat,\n    'nAA': [11]*repeat,\n    'charge': [2]*repeat,\n    'ccs': [1]*repeat\n})\nprecursor_df\n\n\n\n\n\n  \n    \n      \n      sequence\n
…
